chatbot-deployment-main/data.pth (torch, 9258 bytes, 6 tensors)

l1.weight f4 [8, 122]
000000 d1 94 ea 3e 70 74 4a 3e 0d 5e 8e 3d 35 d8 bc 3e
       0.45816663 0.1977098 0.069515325 0.36883703
000010 91 49 92 be d7 69 9c 3f 64 07 84 bf 1e 8c 83 be
       -0.28571752 1.22198 -1.0314755 -0.25692838
000020 2b 45 8e be ce ed 19 bf 6e 10 a0 3d 81 51 20 bf
       -0.27787146 -0.60128486 0.07815634 -0.62624365
000030 4f 51 94 bf 98 e8 94 3e 92 1c 1c 3f 1d 05 6f 3f
       -1.1587313 0.29083705 0.60981095 0.9336718
000040 6e b4 e9 3e 1e 04 de 3e cd 4d 1f 3e 02 13 aa 3f
       0.4564547 0.43362516 0.15557022 1.3287051
000050 ff 4e df bc 6e 96 d1 3e fa 52 8a 3e c6 c1 2b 3f
       -0.027259348 0.4093508 0.2701643 0.6709255
000060 ca 0c b9 3e e5 f0 97 bf dd 05 ca 3c c0 88 71 bf
       0.3614257 -1.187039 0.024660999 -0.9434929
000070 b2 f8 62 3f e4 d4 8c 3e 84 15 78 3e 21 73 75 3e
       0.8866073 0.27506173 0.24226958 0.239697
000080 fe 10 32 be 76 5f af 3e a7 fe 01 bc 2d 79 69 bb
       -0.17389295 0.34252518 -0.007934249 -0.0035625205
000090 fc 61 a1 3e 62 25 1c 3f b3 47 f0 3e a7 43 70 bf
       0.3152007 0.6099454 0.46929702 -0.9385323
0000a0 ad fd d4 bd 4b c3 8e bd c3 bf f6 3e 5e 27 57 3f
       -0.10399947 -0.06970843 0.48193178 0.84044445
0000b0 c4 ba 52 3e f6 d7 97 3e 2d 4f 1a bd f5 87 ac 3f
       0.20579058 0.29656953 -0.037673164 1.3478991
0000c0 01 3b 78 bc 28 f3 93 be 6b bb a6 3a 34 48 9c be
       -0.015150786 -0.2889645 0.001272065 -0.30523837
0000d0 cb de 7d be 06 5b 97 be bd 3f 74 be fb bd a4 3e
       -0.2479202 -0.29561633 -0.23852439 0.32176194
0000e0 77 a8 5b bf b8 bc c5 3e 35 62 82 3e af 7f 1f bf
       -0.8580393 0.38620543 0.2546555 -0.62304205
0000f0 74 e2 72 ba cc 0a 86 bd 11 1c 4c bf e1 f7 3c 3f
       -0.00092653115 -0.06545028 -0.79730326 0.73815733
000100 ce f5 29 3f ca e5 07 bf e1 9f 55 3f f6 3b 68 bf
       0.66390693 -0.53085005 0.8344708 -0.90716493
000110 df b6 d8 3e 56 bf 82 3e 1e 3b 1a bf fb a7 ae 3e
       0.4232702 0.25536603 -0.60246456 0.34112534
000120 4e 68 1e bf 15 eb 85 be 16 53 fb 3e 62 ed 2d 3f
       -0.61877906 -0.26155916 0.49086827 0.6794034
000130 27 20 53 3f 73 31 9f 3e 85 aa 17 3f 47 66 5a 3f
       0.82470936 0.31092414 0.5924457 0.8531231
000140 5e ac 19 bd 32 f8 dd 3e 84 9d ae 3e 79 50 ce 3d
       -0.037517898 0.4335342 0.3410455 0.10073943
000150 45 e2 8e 3c 9d 01 86 3f 3d cf 6d 3f 93 69 04 3f
       0.017441878 1.0469242 0.92894346 0.51723593
000160 0a bc 89 be 1f 04 90 be 3c 66 ef 3e ef 01 58 3f
       -0.26901275 -0.28128144 0.46757686 0.8437795
000170 65 d5 25 3f c6 dd 11 3f e0 cb a0 3e 23 93 83 be
       0.6477874 0.56979024 0.31405544 -0.25698194
000180 df 99 e8 3e 56 37 8d 3f 27 7b 54 be b1 02 b2 be
       0.45429894 1.1032512 -0.20750104 -0.34767678
000190 96 73 0e 3f d1 70 96 3e ac bc 60 be 9a 7e 9a be
       0.5564512 0.29382947 -0.21946973 -0.30174714
0001a0 4a be c9 3d 50 4e 1f 3f cd af 0b 3f 10 54 2e 3e
       0.09850748 0.6222887 0.54565126 0.17024255
0001b0 bb fb 5a 3f 2b 9d 25 3f 57 a4 99 3f da c5 c5 3d
       0.8554036 0.64692944 1.2003278 0.09656878
0001c0 8d 4f 80 3d 95 22 8e 3e cc 37 21 3f 07 ee 5e 3f
       0.06265173 0.2776076 0.62975764 0.8708195
0001d0 50 24 1d 3e 6c 1b 5e 3f 2a b2 b4 3d 0c 1a 3c be
       0.15345883 0.8676059 0.088230446 -0.18369311
0001e0 0f 0e b3 3e 6c 37 13 3f 22 f8 c9 3e e9 a3 53 3f
       0.34971663 0.5750644 0.39447123 0.8267198
0001f0 ba 94 08 3e 3e 83 00 3f fb f9 a8 be 27 b3 5c 3f
       0.13337985 0.5020026 -0.3300322 0.86210865
000200 d4 81 79 bf ea f4 85 be 52 40 d3 be dd fd 66 bf
       -0.97463727 -0.26163417 -0.4126001 -0.90231115
000210 f3 1b f9 3e 46 3c 23 3f dd 97 1f 3f 64 6d 64 3e
       0.48654136 0.63763845 0.623411 0.22307354
000220 65 f9 d8 be 46 66 95 3f 96 a7 30 3e 8d 4f e9 be
       -0.42377773 1.1671836 0.17251429 -0.45568505
000230 f1 88 a8 be 9a 11 34 bf 10 f3 ea bd b9 19 a4 bd
       -0.32916978 -0.7033936 -0.11472142 -0.08012719
000240 f7 86 e6 3e 96 9f 1d 3f 0f b9 fa 3e 61 fc d6 be
       0.45024845 0.61571634 0.48969314 -0.41989425
000250 ed 7b 01 3f 41 e7 fb be 2b 2b 11 3f 0f 59 19 3f
       0.5057972 -0.4919987 0.56706494 0.5990152
000260 b0 8a cc 3d 43 d7 d8 3d f5 c0 81 bd d1 f8 50 be
       0.0998739 0.10587933 -0.06335632 -0.20407416
000270 3b 35 08 be ab c1 5c 3e 50 bb 6d 3e 20 c5 06 3f
       -0.13301556 0.21558253 0.23215985 0.5264454
000280 8f 65 a7 be ff e7 fa be 7b a7 67 3e 55 fc ad be
       -0.3269467 -0.49005124 0.22622482 -0.33981577
000290 89 43 d4 ba a4 7c a3 3e 94 27 9c 3e ba df 27 3f
       -0.0016194443 0.3193103 0.30498946 0.65575755
0002a0 0d 29 e0 3e 92 4f 3a bf 07 85 8e bd 54 9e ff 3e
       0.4378132 -0.72777665 -0.06958967 0.49925482
0002b0 54 8a 2a 3f 68 33 fa 3e b6 61 ed 3e 65 2f db be
       0.6661732 0.48867345 0.4636361 -0.42809597
0002c0 75 11 db be 0d 3b ed 3e ee d0 f9 be 55 12 fb bd
       -0.42786756 0.46334115 -0.48792213 -0.12259356
0002d0 4f 0f f1 3e c9 8a 1e bc 82 2e de 3e fe 1b 15 3e
       0.47081992 -0.009676644 0.43394858 0.1456146
0002e0 be 5c 08 bf d4 85 d4 be 00 83 f5 be 0e a7 88 bf
       -0.53266513 -0.41508353 -0.47951508 -1.0675981
0002f0 52 8c 12 bf 80 ee 47 bf 1e 3b e5 3e 63 1a cf 3e
       -0.5724536 -0.780983 0.44771665 0.4044982
000300 a4 56 0f 3f 11 23 0c 3f ff 2d 2c 3f 5a df 36 3e
       0.5599158 0.5474101 0.67257684 0.1785864
000310 6b da 17 be f8 71 4d 3f 67 43 3b 3f f5 3b fd be
       -0.14829414 0.8025203 0.7314972 -0.49459806
000320 8e 8a 13 3f 56 f1 33 bf 98 ba 40 be 38 77 17 3f
       0.5763329 -0.70290124 -0.1882118 0.5916629
000330 9c 44 1b 3f ae 3f 46 3e f6 ec 7d 3e 31 95 e9 be
       0.60651565 0.1936023 0.24797425 -0.45621637
000340 c0 62 a1 3e fb bb 92 be 8e e7 ed be 8f 56 e8 be
       0.31520653 -0.28659043 -0.46465725 -0.4537854
000350 56 b6 04 3e ee a2 16 bf 26 32 8d 3d bf 09 dd be
       0.1296018 -0.5884236 0.06894331 -0.43171498
000360 ad 6c 91 3e 0c 30 55 bd ca 5b 5e 3f aa 18 46 3e
       0.28403226 -0.052047774 0.8685881 0.19345346
000370 4f f6 e2 bc 3d f1 88 3f 21 cd 64 be 07 78 e1 3e
       -0.02770534 1.069862 -0.22343875 0.44036886
000380 62 81 a7 3f 9c 82 9d 3f 5c ed 3b 3f 87 ce ad bc
       1.308636 1.2305484 0.73409057 -0.021216644
000390 bf 31 42 bf cc 7b 93 3e e8 bd 07 bf 30 f3 0b bf
       -0.75857157 0.28805387 -0.5302415 -0.5466795
0003a0 36 ee fa bd ff f9 d3 3e 1a dc 69 be e5 1b 81 3e
       -0.122524664 0.4140167 -0.22837868 0.25216594
0003b0 8d 48 e6 be 87 73 35 bf f6 c9 b9 3e bf d9 f2 be
       -0.44977227 -0.70879406 0.36286896 -0.47431752
0003c0 f9 a4 67 be b0 76 3d 3e 71 77 07 3f 2d 78 78 3f
       -0.22621526 0.18502307 0.5291663 0.97058374
0003d0 6e 53 91 be 12 b6 7b be 6c 23 ca 3e 08 50 d0 3e
       -0.28383964 -0.24581173 0.3948015 0.4068606
0003e0 9c 88 f7 be f2 32 4c be c3 8f 6b 3f 24 ff d1 3d
       -0.48346412 -0.19941309 0.9201624 0.10253742
0003f0 4e 0a ab 3d e1 92 74 bf fa 25 6b 3e 71 e3 3d bf
       0.08351575 -0.9553662 0.22963706 -0.74175173

l1.bias f4 [8]
000000 79 55 94 3f 00 ca 9a 3f ab 1a 41 3f 3c a5 47 3f
       1.1588584 1.2092896 0.7543132 0.779865
000010 5e a8 d0 3f d2 f7 6e 3f ad 9e 9a 3f 94 8a 94 3f
       1.6301382 0.93346894 1.2079674 1.1604791

l2.weight f4 [8, 8]
000000 b6 7f ba bf 90 f7 cc 3f e9 2a a3 bd e2 e5 47 bf
       -1.4570224 1.601305 -0.07967169 -0.7808515
000010 fc 04 f4 3f a8 b3 36 be 86 3e a2 3f 4b ac c2 3f
       1.9064021 -0.17841971 1.2675331 1.520883
000020 27 40 d3 3f 03 14 cf 3f 2f 3c f2 bf 67 8e dd 3f
       1.6503953 1.6177982 -1.8924617 1.7309083
000030 2b 3a 98 3f a4 0a 7b 3e f0 c0 6f bf 50 e7 3f bf
       1.1892751 0.24515778 -0.93653774 -0.7496233
000040 60 10 59 bd ab 5c 8f 3e 44 eb ac be 7a 4d e7 bd
       -0.052994132 0.28000388 -0.33773243 -0.11294074
000050 d6 22 fb bd 4c ea c6 bd b8 96 63 bd 38 a6 4a bd
       -0.12262504 -0.09712657 -0.05556366 -0.049474925
000060 0e 54 c6 bd 22 f9 a2 bf 1b 08 89 be ca 5f bf 3f
       -0.09684001 -1.2732279 -0.26763996 1.4951108
000070 08 d1 ab bf ca d2 63 3e e0 8d 25 3f a8 9b 54 3f
       -1.3423166 0.22248378 0.6466961 0.8305001
000080 51 c2 6c 3f 49 12 7c 3e e9 2c fe 3f 30 df a8 3f
       0.92484003 0.2461635 1.9857455 1.3193111
000090 06 37 61 bf f9 60 57 bf 2d 1e ab 3e de 7d 7b 3f
       -0.87974584 -0.84132344 0.3342146 0.98238933
0000a0 f8 bc c0 3f 2f 0b 74 3f 67 52 bf 3e 7d 91 d1 3e
       1.5057669 0.95329565 0.37367555 0.4093131
0000b0 de 82 b0 3f c9 50 90 3f 3f 77 9f bf dc 55 93 bf
       1.3789937 1.1274654 -1.2458266 -1.1510577
0000c0 43 bd 3d 3f 56 4e b4 bf 9b 95 dd 3f 61 95 32 be
       0.74116915 -1.4086406 1.7311281 -0.17439796
0000d0 c9 16 94 3c 80 13 01 40 74 e3 e2 3f f5 af 92 3f
       0.018077271 2.0168152 1.7725663 1.1459948
0000e0 bd 60 2d 3f 65 38 91 3f 32 56 c5 bd 48 11 65 bf
       0.67725736 1.1345335 -0.09635581 -0.89479494
0000f0 36 d4 8c 3f 37 2b f8 bf e8 76 b0 3f 8d c1 9b 3f
       1.1002262 -1.9388188 1.3786287 1.2168442

l2.bias f4 [8]
000000 b5 d4 69 3e d7 0f 71 3f 0f a5 a3 be aa af ca 3e
       0.22835048 0.94164795 -0.31961867 0.39587146
000010 3c e1 9a be ee d6 b7 3d e9 75 9f 3e 57 43 75 3f
       -0.30249965 0.089765415 0.31144646 0.9580588

l3.weight f4 [20, 8]
000000 32 5d 33 3f 25 b4 5f bf aa 06 87 be ab 9a 93 bf
       0.7006408 -0.87384254 -0.26372272 -1.1531576
000010 54 06 01 c0 2c 1f 17 c0 a6 8f e8 be da a7 0a 3f
       -2.0160112 -2.3612776 -0.45422095 0.5416237
000020 17 bf 70 3e 2d 91 07 be f7 1a 51 be 26 46 4d bf
       0.23510395 -0.13238974 -0.20420443 -0.80185163
000030 1d 9d 2f c0 24 fe e4 be 62 5a 01 bf 53 fa c5 3e
       -2.7439644 -0.44725144 -0.5052854 0.38667545
000040 2c 55 1e 3e a9 b7 fc bf 60 4a 47 3d 32 c3 cd bf
       0.15462178 -1.9743549 0.048654914 -1.6075194
000050 28 98 ea bf f6 1f 9c be 95 1e e3 3e aa 3e 3f 3d
       -1.8327684 -0.30493134 0.4435927 0.04669062
000060 db 54 36 c0 77 d2 96 3e c5 f5 85 3e 96 a4 1b bf
       -2.8489292 0.29457447 0.2616407 -0.60798013
000070 45 a8 c3 3e db 55 c0 bd b6 6a 96 bf 18 f2 cd 3e
       0.38214317 -0.09391376 -1.1751316 0.40223765
000080 bf 60 a3 bf d8 8b b8 bf 1b 26 a7 3e ca f7 2d bf
       -1.27639 -1.4417677 0.3264626 -0.6795622
000090 f3 e4 36 bd eb b0 2f bf e7 89 47 3f 31 e4 de bf
       -0.044651937 -0.6862933 0.779448 -1.7413388
0000a0 08 61 1d c0 71 e8 b1 bf 09 ae ac be 6d 67 bf 3d
       -2.4590473 -1.389906 -0.33726528 0.09345899
0000b0 c0 b3 0d 3f 55 d9 fb bf a9 88 3a 3e 3e 68 c6 be
       0.553524 -1.96757 0.18216194 -0.38751405
0000c0 c8 33 6d 3e f4 c8 96 bf 95 5f 90 be 5a 36 d5 be
       0.23164284 -1.1780076 -0.28197923 -0.4164303
0000d0 e8 a7 d2 bd cc e1 0a c0 ef 57 9e 3e c7 0a 8e bf
       -0.10285932 -2.1700315 0.30926463 -1.1097039
0000e0 69 b1 a2 bf 7e 10 22 be 57 80 82 3e 75 79 e8 be
       -1.2710391 -0.15826604 0.2548854 -0.45405164
0000f0 d7 ab dd 3e 32 0d 43 bf 90 cd 9c be 55 9b 07 bd
       0.43295166 -0.7619201 -0.30625582 -0.03310712
000100 a4 78 18 c0 a3 f4 04 3f 6c 3c 95 be 31 89 57 3f
       -2.3823633 0.51935786 -0.2914766 0.8419371
000110 f6 e0 84 3e 94 33 7a bf 46 c5 27 bf 5c 28 bc bf
       0.25952882 -0.9773495 -0.6553539 -1.4699817
000120 bb b5 c5 bf 76 72 ea be b1 77 98 be a7 f1 c3 bf
       -1.5446085 -0.45790452 -0.29778817 -1.5308121
000130 cb f2 d0 3e 19 d2 84 3e 32 a9 cb bd 97 14 f0 bf
       0.40810236 0.25941542 -0.09944381 -1.8756284
000140 e4 fe d0 bf 95 01 fc 3e f0 dc b6 bd 5d c0 2c bf
       -1.6327786 0.49219957 -0.08928859 -0.67481023
000150 93 d1 21 c0 d6 6b ce 3e ba 2c 93 bd ad 93 fe 39
       -2.5284164 0.40316647 -0.07186265 0.00048556682
000160 1d 99 cf bd cb 2d fd bf a0 85 7b bc 53 44 21 c0
       -0.10136626 -1.97796 -0.015351683 -2.5197952
000170 56 db 93 bb 48 89 0c c0 fe 8e 82 be 46 58 3c 3f
       -0.004512231 -2.195879 -0.2549972 0.73572195
000180 7a 4f 5f be 5b d4 64 be f2 f2 60 3e de 6d ca bf
       -0.21807662 -0.22346632 0.21967676 -1.5814779
000190 d7 43 5f be 3e fd ee be f2 fc 88 bf 83 0f e8 3e
       -0.21803223 -0.46677583 -1.0702193 0.45324335
0001a0 1e b7 67 bf 51 ef c3 3e 2c e1 a0 bd ea 4d 08 c0
       -0.9051379 0.3826852 -0.07855448 -2.1297555
0001b0 13 9f 1e be a0 19 90 3e aa 82 da bf aa 81 bf 3d
       -0.1549037 0.2814455 -1.7071126 0.09350903
0001c0 fc ce fc bf d8 f3 f9 3e ce 2a 83 be c3 a4 cc bf
       -1.9750667 0.4881885 -0.25618595 -1.5987781
0001d0 73 1a 8b be 32 8a 3b 3f 26 77 85 bf 86 a6 d8 bf
       -0.27168617 0.73257744 -1.0426986 -1.6925819
0001e0 ab 30 0f bf 0f fe 4b 3f 45 3c ad 3e 72 ea 48 bf
       -0.55933636 0.7968454 0.33835045 -0.78482735
0001f0 06 e0 1f c0 9c b4 fa 3e 07 9e 11 c0 3c f1 37 be
       -2.4980483 0.4896592 -2.2752702 -0.17963117
000200 8c ac e2 bd e1 f7 c7 be 76 b1 51 3e 16 1c cf bf
       -0.11068067 -0.39056304 0.20477852 -1.6180446
000210 f5 8e 17 bf 61 c0 68 3e 0b 3b 2e be d8 1c 38 bf
       -0.5920251 0.22729637 -0.1701471 -0.7191901
000220 f0 65 96 bf 65 97 12 bf 54 1c cb bd 37 5e 4e 3f
       -1.1749859 -0.5726226 -0.099175125 0.8061251
000230 ff bc df bd d2 18 2c c0 37 8b e5 3e 82 16 fb bf
       -0.1092472 -2.689015 0.44832775 -1.9616244
000240 f1 b3 4a 3e 30 b4 99 3d d6 45 fb bd 11 28 0f bf
       0.19795205 0.07505071 -0.122691795 -0.5592051
000250 61 9e 11 c0 6f 20 77 3d 3d 39 34 c0 9e d5 63 3f
       -2.2752917 0.060333665 -2.8159935 0.8899783
000260 19 f4 85 bf 6b 08 01 c0 ae f2 7b be e1 0b 45 bf
       -1.0465118 -2.0161388 -0.24604294 -0.7697125
000270 aa b9 db bd c8 40 6b bf 50 04 a8 3e a8 0c c4 3e
       -0.10728772 -0.91895723 0.3281579 0.38290906

l3.bias f4 [20]
000000 e0 fc 7a 3e 5f f9 1a be 30 48 9b be 89 8e f7 be
       0.24510527 -0.1513419 -0.30328512 -0.48350933
000010 f7 43 52 3d 3f 09 d6 be 47 23 73 be 94 f9 59 be
       0.051334348 -0.4180393 -0.23743926 -0.21286613
000020 0c 66 d7 3e 02 a6 8c 3e 45 58 dd 3e bc 2a 2e 3f
       0.42070043 0.27470404 0.43231407 0.6803396
000030 4f 76 81 bb 24 d4 c3 be 58 48 99 3c 47 04 91 3e
       -0.003950871 -0.38247788 0.018711254 0.28323576
000040 be 06 ec 3d c5 af 00 3f 35 4a eb bd fb 77 c9 be
       0.115247235 0.50268203 -0.11488763 -0.3934935
